…
 'output_dir': '/home/pzou/software/software-benchmark/Deep_Learning_Bench/Candle/Pilot3/P3B3/Output/EXP000/RUN000',
 'rng_seed': 7102,
 'run_id': 'RUN000',
 'shuffle': False,
 'timeout': -1,
 'train_bool': True,
 'train_data': 'P3B3_data.tar.gz',
 'verbose': None,
 'w_l2': 0.01,
 'wv_len': 300}
__________________________________________________________________________________________________
Layer (type)                    Output Shape         Param #     Connected to                     
==================================================================================================
Input (InputLayer)              (None, 1500)         0                                            
__________________________________________________________________________________________________
embedding (Embedding)           (None, 1500, 300)    1396200     Input[0][0]                      
__________________________________________________________________________________________________
0_thfilter (Conv1D)             (None, 1500, 100)    90100       embedding[0][0]                  
__________________________________________________________________________________________________
1_thfilter (Conv1D)             (None, 1500, 100)    120100      embedding[0][0]                  
__________________________________________________________________________________________________
2_thfilter (Conv1D)             (None, 1500, 100)    150100      embedding[0][0]                  
__________________________________________________________________________________________________
global_max_pooling1d_1 (GlobalM (None, 100)          0           0_thfilter[0][0]                 
__________________________________________________________________________________________________
global_max_pooling1d_2 (GlobalM (None, 100)          0           1_thfilter[0][0]                 
__________________________________________________________________________________________________
global_max_pooling1d_3 (GlobalM (None, 100)          0           2_thfilter[0][0]                 
__________________________________________________________________________________________________
concatenate_1 (Concatenate)     (None, 300)          0           global_max_pooling1d_1[0][0]     
                                                                 global_max_pooling1d_2[0][0]     
                                                                 global_max_pooling1d_3[0][0]     
__________________________________________________________________________________________________
dropout_1 (Dropout)             (None, 300)          0           concatenate_1[0][0]              
__________________________________________________________________________________________________
Dense0 (Dense)                  (None, 6)            1806        dropout_1[0][0]                  
__________________________________________________________________________________________________
Dense1 (Dense)                  (None, 2)            602         dropout_1[0][0]                  
__________________________________________________________________________________________________
Dense2 (Dense)                  (None, 2)            602         dropout_1[0][0]                  
__________________________________________________________________________________________________
Dense3 (Dense)                  (None, 3)            903         dropout_1[0][0]                  
==================================================================================================
Total params: 1,760,413
Trainable params: 1,760,413
Non-trainable params: 0
__________________________________________________________________________________________________
None
Train on 8000 samples, validate on 2000 samples
Epoch 1/10
 - 21s - loss: 17.5
…
