…
 'test_data': 'type_18_300_test.csv',
 'timeout': -1,
 'train_bool': True,
 'train_data': 'type_18_300_train.csv',
 'verbose': None}
Loading data...
done
df_train shape: (4320, 60484)
df_test shape: (1080, 60484)
X_train shape: (4320, 60483)
X_test shape: (1080, 60483)
Y_train shape: (4320, 36)
Y_test shape: (1080, 36)
X_train shape: (4320, 60483, 1)
X_test shape: (1080, 60483, 1)
0.0 128 20 1
1.0 128 10 1
_________________________________________________________________
Layer (type)                 Output Shape              Param #   
=================================================================
conv1d_1 (Conv1D)            (None, 60464, 128)        2688      
_________________________________________________________________
activation_1 (Activation)    (None, 60464, 128)        0         
_________________________________________________________________
max_pooling1d_1 (MaxPooling1 (None, 60464, 128)        0         
_________________________________________________________________
conv1d_2 (Conv1D)            (None, 60455, 128)        163968    
_________________________________________________________________
activation_2 (Activation)    (None, 60455, 128)        0         
_________________________________________________________________
max_pooling1d_2 (MaxPooling1 (None, 6045, 128)         0         
_________________________________________________________________
flatten_1 (Flatten)          (None, 773760)            0         
_________________________________________________________________
dense_1 (Dense)              (None, 200)               154752200 
_________________________________________________________________
activation_3 (Activation)    (None, 200)               0         
_________________________________________________________________
dropout_1 (Dropout)          (None, 200)               0         
_________________________________________________________________
dense_2 (Dense)              (None, 20)                4020      
_________________________________________________________________
activation_4 (Activation)    (None, 20)                0         
_________________________________________________________________
dropout_2 (Dropout)          (None, 20)                0         
_________________________________________________________________
dense_3 (Dense)              (None, 36)                756       
_________________________________________________________________
activation_5 (Activation)    (None, 36)                0         
=================================================================
Total params: 154,923,632
Trainable params: 154,923,632
Non-trainable params: 0
_________________________________________________________________
Train on 4320 samples, validate on 1080 samples
Epoch 1/20

  20/4320 [..............................] - ETA: 29:04 - loss: 3.5763 - acc: 0.0500
  40/4320 [..............................] - ETA: 15:05 - loss: 3.5673 - acc: 0.0750
…
